…
 the behavior and silence this warning, please use dropout instead. Note that dropout2d exists to provide channel-wise dropout on inputs with 2 spatial dimensions, a channel dimension, and an optional batch dimension (i.e. 3D or 4D inputs).\n      warnings.warn(warn_msg)\n\n\n\n\n\n    ==========================================================================================\n    Layer (type:depth-idx)                   Output Shape              Param #\n    ==========================================================================================\n    model                                    [64, 10]                  --\n    ├─Conv2d: 1-1                            [64, 4, 32, 32]           112\n    ├─BatchNorm2d: 1-2                       [64, 4, 32, 32]           8\n    ├─Conv2d: 1-3                            [64, 8, 32, 32]           296\n    ├─BatchNorm2d: 1-4                       [64, 8, 32, 32]           16\n    ├─Conv2d: 1-5                            [64, 16, 32, 32]          1,168\n    ├─BatchNorm2d: 1-6                       [64, 16, 32, 32]          32\n    ├─MaxPool2d: 1-7                         [64, 16, 16, 16]          --\n    ├─Conv2d: 1-8                            [64, 32, 16, 16]          4,640\n    ├─BatchNorm2d: 1-9                       [64, 32, 16, 16]          64\n    ├─AvgPool2d: 1-10                        [64, 32, 8, 8]            --\n    ├─Conv2d: 1-11                           [64, 64, 8, 8]            18,496\n    ├─BatchNorm2d: 1-12                      [64, 64, 8, 8]            128\n    ├─MaxPool2d: 1-13                        [64, 64, 4, 4]            --\n    ├─Linear: 1-14                           [64, 512]                 524,800\n    ├─Dropout2d: 1-15                        [64, 512]                 --\n    ├─Linear: 1-16                           [64, 10]                  5,130\n    ==========================================================================================\n    Total params: 554,890\n    Trainable params: 554,890\n    Non-trainable params: 0\n    Total mult-adds (M): 289.00\n    ==========================================================================================\n    Input size (MB): 0.79\n    Forward/backward pass size (MB): 42.21\n    Params size
…
