…
<pre><code>D:\02_soft\anaconda3\envs\pytorch\lib\site-packages\torch\nn\functional.py:1331: UserWarning: dropout2d: Received a 2-D input to dropout2d, which is deprecated and will result in an error in a future release. To retain the behavior and silence this warning, please use dropout instead. Note that dropout2d exists to provide channel-wise dropout on inputs with 2 spatial dimensions, a channel dimension, and an optional batch dimension (i.e. 3D or 4D inputs).
  warnings.warn(warn_msg)





==========================================================================================
Layer (type:depth-idx)                   Output Shape              Param #
==========================================================================================
model                                    [64, 10]                  --
├─Conv2d: 1-1                            [64, 4, 32, 32]           112
├─BatchNorm2d: 1-2                       [64, 4, 32, 32]           8
├─Conv2d: 1-3                            [64, 8, 32, 32]           296
├─BatchNorm2d: 1-4                       [64, 8, 32, 32]           16
├─Conv2d: 1-5                            [64, 16, 32, 32]          1,168
├─BatchNorm2d: 1-6                       [64, 16, 32, 32]          32
├─MaxPool2d: 1-7                         [64, 16, 16, 16]          --
├─Conv2d: 1-8                            [64, 32, 16, 16]          4,640
├─BatchNorm2d: 1-9                       [64, 32, 16, 16]          64
├─AvgPool2d: 1-10                        [64, 32, 8, 8]            --
├─Conv2d: 1-11                           [64, 64, 8, 8]            18,496
├─BatchNorm2d: 1-12                      [64, 64, 8, 8]            128
├─MaxPool2d: 1-13                        [64, 64, 4, 4]            --
├─Linear: 1-14                           [64, 512]                 524,800
├─Dropout2d: 1-15                        [64, 512]                 --
├─Linear: 1-16                           [64, 10]                  5,130
==========================================================================================
Total params: 554,890
Trainable params: 554,890
Non-trainable params: 0
Total mult-adds (M): 289.00
==========================================================================================
Input size (MB): 0.79
Forward/backward pass size (MB): 42.21
Params size (MB): 2.22
Estimated Total Size (MB): 45.22
==========================================================================================
…
